converted_model.tflite (tflite, 425036 bytes, 20 tensors)

model/dense/BiasAdd/ReadVariableOp f4 [8]
0.12346134 0.045701884 0.061921753 0.061214596 0.059625793 0.07522305 -0.06275062 -0.040165912
00000000: 4dd9 fc3d e631 3b3d aaa1 7d3d 28bc 7a3d
00000010: 2d3a 743d 8b0e 9a3d 6683 80bd 0385 24bd

model/dense_1/BiasAdd/ReadVariableOp f4 [2]
0.042643525 -0.042643517
00000000: faaa 2e3d f8aa 2ebd

MatMul_1 f4 [24, 8]
0.0016637007 -0.10894144 -0.19240399 0.17705165 0.15630925 -0.20747246 0.14699133 -0.034397725
-0.051304057 -0.20951238 -0.17226759 0.07991287 0.15910085 -0.09542192 0.32157487 -0.03784703
0.015423901 0.058356036 0.12910266 0.13291173 -0.2341057 0.3625926 0.14523931 0.13055155
-0.18061395 0.1142797 0.16148551 0.16547613 0.31677556 0.18427499 0.35993952 0.13401839
0.1885839 -0.42656738 -0.10605238 0.23451194 0.31445485 0.17116235 -0.1478672 -0.20069051
-0.09327867 -0.23171811 -0.21612446 0.13083562 0.09809614 0.50403666 -0.19895956 0.1519747
-0.3984115 -0.09783034 0.046995945 0.0013971129 0.23810105 -0.19279079 -0.40134966 0.29890522
-0.30446273 -0.24747375 0.061382633 0.07407594 0.13344415 -0.24873555 0.27594325 0.015771627
-0.43067193 0.016209505 0.019536745 -0.11600342 0.035436302 0.0071175816 -0.032280207 0.1595044
0.1527014 0.27870476 -0.6189697 -0.15670665 0.25734517 0.21335721 -0.10856388 0.07644229
-0.041248232 -0.16350836 -0.032635313 0.16739185 -0.05068066 0.13978529 0.17567709 0.17048423
0.06534868 0.011554105 0.2810538 -0.398793 0.34133464 0.20317112 -0.18597433 0.14673921
0.041355304 -0.08590985 0.102232985 0.1118693 -0.28070584 0.13014808 0.03343812 0.37312388
-0.20475379 -0.11358442 0.0026881471 -0.28284687 0.21028394 0.17745022 0.0115601085 -0.16867611
-0.30843195 -0.3093242 -0.18920366 0.05105238 -0.31544304 0.14193143 -0.061357755 -0.1892628
-0.0898436 -0.006993109 -0.11131314 0.038182914 0.101410605 -0.3413121 0.12485176 0.17787845
0.05071831 0.027955493 0.24504775 0.027751964 0.12676033 0.08106581 0.010247333 -0.26711524
0.06569643 -0.16825366 0.24403994 0.04971204 0.12489355 0.0368611 -0.014065411 0.17328615
-0.13087858 -0.15195814 0.36272454 -0.033042718 -0.062320687 0.09047751 -0.12840866 -0.5336653
-0.061441083 0.050386533 0.26775178 0.20805782 -0.0046214107 0.14207214 0.5083361 0.12826672
-0.28399423 0.30696887 -0.10121151 0.48540053 -0.029109092 -0.013762705 -0.23884249 -0.2486747
0.24057534 0.1682001 0.27984554 0.47823346 0.24596635 -0.08215331 -0.24533057 0.025208237
-0.24097969 0.0660815 0.17721695 0.22491749 -0.099778906 0.13099825 -0.08258507 0.15679592
0.18694894 -0.3389193 0.06637519 0.10930695 -0.24100514 -0.124233425 -0.15053824 0.27269042
00000000: 8810 da3a b11c dfbd 8d05 45be 074d 353e
00000010: 880f 203e a973 54be e584 163e a1e4 0cbd
00000020: 3424 52bd 6a8a 56be ea66 30be 5ca9 a33d
00000030: 55eb 223e 916c c3bd 76a5 a43e 7d05 1bbd
00000040: 88b4 7c3c bd06 6f3d 7d33 043e 031a 083e
00000050: 68b9 6fbe bda5 b93e 9db9 143e 4eaf 053e
00000060: ddf2 38be 7a0b ea3d 755c 253e 9372 293e
00000070: 6830 a23e 95b2 3c3e fe49 b83e 1e3c 093e
00000080: 231c 413e 0a67 dabe fd31 d9bd e623 703e
00000090: 3a00 a13e 2f45 2f3e 806a 17be d081 4dbe
000000a0: e308 bfbd 8347 6dbe bb4f 5dbe c6f9 053e
000000b0: a1e6 c83d 8c08 013f 0ebc 4bbe 419f 1b3e
000000c0: 98fc cbbe 465b c8bd d27e 403d 541f b73a
000000d0: c3d0 733e f36a 45be b47d cdbe 1b0a 993e
000000e0: 8ae2 9bbe c269 7dbe 5b6c 7b3d 20b5 973d
000000f0: 95a5 083e 88b4 7ebe 6f48 8d3e 8033 813c
00000100: 0881 dcbe ccc9 843c 860b a03c 3393 edbd
00000110: a825 113d 9a3a e93b 4038 04bd 1f55 233e
00000120: c15d 1c3e 64b2 8e3e cc74 1ebf b577 20be
00000130: bfc2 833e 507a 5a3e bd56 debd c68d 9c3d
00000140: e8f3 28bd bc6e 27be 9bac 05bd c568 2b3e
00000150: 8696 4fbd e023 0f3e b2e4 333e 6b93 2e3e
00000160: 87d5 853d 6e4d 3d3c 49e6 8f3e 992e ccbe
00000170: 6ac3 ae3e 170c 503e 0e70 3ebe ce42 163e
00000180: 2e64 293d 81f1 afbd 875f d13d bb1b e53d
00000190: adb8 8fbe 8a45 053e 69f6 083d 180a bf3e
000001a0: faaa 51be f39e e8bd a02b 303b 4ed1 90be
000001b0: ac54 573e 83b5 353e 9c66 3d3c 6eb9 2cbe
000001c0: cbea 9dbe be5f 9ebe 9bbe 41be 4d1c 513d
000001d0: c081 a1be 7956 113e 4552 7bbd 1cce 41be
000001e0: ecff b7bd 7326 e5bb 25f8 e3bd b065 1c3d
000001f0: 5db0 cf3d 76c0 aebe 48b2 ff3d c525 363e
00000200: 01be 4f3d eb02 e53c cced 7a3e 1658 e33c
00000210: 76cd 013e d505 a63d 6ee4 273c 54c3 88be
00000220: da8b 863d b04a 2cbe 9be5 793e da9e 4b3d
00000230: 31c8 ff3d aafb 163d 9c72 66bc ed71 313e
00000240: 0905 06be ea9a 1bbe 08b7 b93e cd57 07bd
00000250: fa43 7fbd 464c b93d 8f7d 03be 4a9e 08bf
00000260: a5a9 7bbd 1c62 4e3d c316 893e 1c0d 553e
00000270: 346f 97bb 5c7b 113e 5122 023f 5a58 033e
00000280: b167 91be 062b 9d3e fb47 cfbd 6b86 f83e
00000290: 3176 eebc f87c 61bc 2093 74be 95a4 7ebe
000002a0: 6259 763e a63c 2c3e ea47 8f3e 04db f43e
000002b0: 9ade 7b3e ff3f a8bd f037 7bbe 8181 ce3c
000002c0: 61c3 76be bd55 873d 5c78 353e c550 663e
000002d0: e258 ccbd 6824 063e 5c22 a9bd 1c8f 203e
000002e0: 8b6f 3f3e d586 adbe b7ef 873d 52dc df3d
000002f0: 0dca 76be 186e febd b226 1abe 149e 8b3e

unstack f4 [24]
-0.022292972 -0.015321144 -0.009685071 -0.029314224 -0.017457569 -0.015322148 -0.027194794 0.013730143
-0.019056449 -0.04275119 -0.03378991 0.06841536 -0.071087755 0.027368829 0.078727216 -0.00944053
-0.027170967 0.026802178 -0.038754404 -0.029239934 0.016633576 0.04632619 -0.003342455 -0.041161694
00000000: c09f b6bc 8905 7bbc 22ae 1ebc 6224 f0bc
00000010: 2d03 8fbc bf09 7bbc 9ec7 debc 65f4 603c
00000020: 451c 9cbc df1b 2fbd 4a67 0abd 5a1d 8c3d
00000030: 7596 91bd 9834 e03c bc3b a13d 74ac 1abc
00000040: a695 debc 3e90 db3c f0bc 1ebd 9688 efbc
00000050: 2343 883c 88c0 3d3d 170d 5bbb 2a99 28bd

unstack1 f4 [24]
-0.022292972 -0.015321144 -0.009685071 -0.029314224 -0.017457569 -0.015322148 -0.027194794 0.013730143
-0.019056449 -0.04275119 -0.03378991 0.06841536 -0.071087755 0.027368829 0.078727216 -0.00944053
-0.036664072 0.02929257 -0.029589022 -0.046283904 0.02483826 0.05060886 0.0123491725 -0.045462657
00000000: c09f b6bc 8905 7bbc 22ae 1ebc 6224 f0bc
00000010: 2d03 8fbc bf09 7bbc 9ec7 debc 65f4 603c
00000020: 451c 9cbc df1b 2fbd 4a67 0abd 5a1d 8c3d
00000030: 7596 91bd 9834 e03c bc3b a13d 74ac 1abc
00000040: 112d 16bd f9f6 ef3c ad64 f2bc 3194 3dbd
00000050: 9b79 cb3c 3c4b 4f3d 2f54 4a3c 0d37 3abd

MatMul f4 [24, 16]
-0.04735467 -0.2507493 -0.36339942 -0.23743758 -0.20229594 -0.38808644 -0.10961897 0.23050654
0.17471749 0.16086705 -0.28310692 0.08052717 -0.04550975 0.2725363 -0.10621388 0.20768028
-0.22775325 -0.27343863 0.17291662 -0.11041281 -0.04391467 0.13886775 0.061887737 -0.20476991
-0.12663515 -0.049281772 -0.13695945 0.014335693 0.21432966 -0.018878538 -0.05792243 -0.3073417
0.12932985 0.16692856 0.10863267 0.3602414 0.348266 -0.21821325 -0.14194712 -0.22621948
-0.2855017 -0.3861425 -0.1844402 -0.20709226 -0.17630897 0.04567422 -0.21042052 0.1848244
-0.20142354 -0.23158666 -0.3181131 0.006115669 0.2107693 -0.050210506 0.24708825 -0.23875193
0.025013734 -0.29009315 0.23221056 0.35439828 0.0903158 -0.040130656 -0.20339404 0.3789603
0.16473001 0.057568956 -0.24375749 -0.19996831 0.03970076 -0.3384886 -0.18240881 0.116323955
0.0047007436 -0.4036559 -0.07438749 -0.30004147 -0.030850694 0.096209206 0.1146646 -0.29323003
-0.19764625 -0.283475 -0.3113517 -0.3222746 -0.38013783 0.28031823 -0.09664752 0.21592054
-0.35048088 -0.29024354 0.08582928 -0.007422709 -0.35810667 0.07414496 -0.370987 0.32295135
0.29887658 -0.05165318 -0.3348116 0.048841894 -0.32445756 -0.38492453 0.10777725 0.19847697
0.12937938 -0.14540859 0.21114273 -0.17658138 -0.30012968 -0.16021056 0.3950209 0.13937171
-0.18426755 0.14698803 0.1908085 -0.38777563 0.23120956 0.15250315 0.014890489 0.1520489
-0.32980686 0.0506296 -0.1572904 -0.29449412 -0.04034579 0.19480208 -0.03434472 0.0663122
-0.30382875 0.17681602 0.33921155 0.3623663 0.26617435 -0.32963198 0.031633336 0.08701731
-0.25220677 -0.21016619 -0.16858777 0.24256377 -0.15998054 -0.30620924 -0.2343187 -0.34293067
0.26245904 0.24383943 0.26640826 -0.2536263 0.2824084 -0.42849618 -0.10962308 0.24699287
-0.024980241 -0.38904837 0.19210276 -0.1673645 -0.31126073 -0.04633267 -0.17391838 0.23346104
-0.30406538 0.07016033 0.24135637 0.39772218 0.28695616 0.14239495 -0.30618423 0.32945943
0.31580037 -0.16173594 -0.39229903 0.270589 -0.026333136 -0.22700426 -0.356977 0.34029055
0.19239429 0.16869831 -0.37014785 0.18762957 -0.16743019 0.2624141 -0.1389418 -0.44365612
0.42664266 0.051088464 0.30198658 -0.015542178 -0.08622883 0.36326975 0.011223982 -0.37660453
0.28904364 -0.30723962 0.39521337 -0.2450935 -0.30500615 0.0013618668 -0.08195037 -0.030200476
0.027809927 -0.28577474 -0.25674593 -0.34160167 0.39129487 0.12735188 -0.17764242 -0.05400242
0.19095016 0.3816702 0.14252083 -0.01828772 0.13707693 -0.16425696 0.100135066 0.020425508
-0.3785976 -0.012053926 -0.33889994 0.38317546 0.22280088 0.32828072 -0.21919036 -0.05406154
0.006214517 -0.31641647 0.23331164 0.15286553 0.09911455 0.17221962 0.3336699 -0.17445
-0.3295771 -0.29674676 -0.31670862 0.24705057 0.14176145 -0.33563045 0.11941486 -0.0011049113
0.27885008 0.19011407 0.1628983 0.06478487 0.31624693 -0.3297467 0.2647294 -0.31795713
0.26762727 0.383866 0.26867762 -0.096761115 -0.23934321 0.33385628 -0.04822785 0.12817192
00000000: f8f6 41bd 3662 80be 7d0f babe d622 73be
00000010: ab26 4fbe 44b3 c6be e97f e0bd e809 6c3e
00000020: 24e9 323e 55ba 243e 64f3 90be 6eeb a43d
00000030: 6e68 3abd e189 8b3e aa86 d9bd 24aa 543e
00000040: 2638 69be 2600 8cbe 0e11 313e 1d20 e2bd
00000050: dedf 33bd 5933 0e3e ff7d 7d3d 34af 51be
00000060: a5ac 01be afdb 49bd 193f 0cbe 41e0 6a3c
00000070: 3c79 5b3e 2aa7 9abc 1240 6dbd e45b 9dbe
00000080: 0b6f 043e 52ef 2a3e ce7a de3d 9071 b83e
00000090: ec4f b23e 4b73 5fbe 965a 11be 14a6 67be
000000a0: 472d 92be 78b4 c5be e4dd 3cbe fe0f 54be
000000b0: 578a 34be e414 3b3d 7a78 57be 9c42 3d3e
000000c0: f941 4ebe 0e25 6dbe b8df a2be f365 c83b
000000d0: e8d3 573e 88a9 4dbd b404 7d3e 637b 74be
000000e0: 9ae9 cc3c 1787 94be 9bc8 6d3e b173 b53e
000000f0: 7df7 b83d 0b60 24bd 8746 50be 1607 c23e
00000100: fcae 283e 6dcd 6b3d 909b 79be 7ec4 4cbe
00000110: 449d 223d 614e adbe 60c9 3abe 413b ee3d
00000120: b208 9a3b fcab cebe 7858 98bd 099f 99be
00000130: 98ba fcbc 5509 c53d 46d5 ea3d 3f22 96be
00000140: c763 4abe a323 91be 7d69 9fbe 2d01 a5be
00000150: 6da1 c2be df85 8f3e 23ef c5bd 461a 5d3e
00000160: 3b72 b3be cd9a 94be 43c7 af3d 323a f3bb
00000170: c259 b7be 50d9 973d 02f2 bdbe e159 a53e
00000180: 5a06 993e 4992 53bd 6d6c abbe 700e 483d
00000190: 4d1f a6be d414 c5be 52ba dc3d 8c3d 4b3e
000001a0: 077c 043e fde5 14be cd35 583e c0d1 34be
000001b0: 99aa 99be 3d0e 24be 2e40 ca3e 75b7 0e3e
000001c0: a2b0 3cbe 0884 163e 4e63 433e 878a c6be
000001d0: 33c2 6c3e c929 1c3e 3df7 733c b5b2 1b3e
000001e0: 72dc a8be fc60 4f3d bc10 21be efc7 96be
000001f0: a141 25bd 327a 473e 0dad 0cbd b1ce 873d
00000200: 718f 9bbe 420f 353e 23ad ad3e 1388 b93e
00000210: 0148 883e 86c5 a8be f591 013d 2236 b23d
00000220: 3f21 81be ce35 57be 46a2 2cbe a362 783e
00000230: f0d1 23be 75c7 9cbe 3ef1 6fbe 9c94 afbe
00000240: 0861 863e 0bb1 793e aa66 883e 4edb 81be
00000250: d597 903e da63 dbbe 1182 e0bd b3eb 7c3e
00000260: 5da3 ccbc 5931 c7be 96b6 443e 9961 2bbe
00000270: 915d 9fbe 53c7 3dbd a917 32be 6910 6f3e
00000280: 75ae 9bbe 38b0 8f3d 2026 773e 3ea2 cb3e
00000290: ebeb 923e fbcf 113e 2ec4 9cbe e8ae a83e
000002a0: 96b0 a13e 1b9e 25be 6bdb c8be a48a 8a3e
000002b0: 97b8 d7bc ce73 68be b0c5 b6be 903a ae3e
000002c0: 0203 453e 40bf 2c3e 0584 bdbe f721 403e
000002d0: d272 2bbe 245b 863e c246 0ebe e526 e3be
000002e0: e870 da3e 2342 513d fc9d 9a3e 9fa4 7ebc
000002f0: be98 b0bd 7efe b93e cbe4 373c 4fd2 c0be
00000300: 87fd 933e 834e 9dbe 6859 ca3e caf9 7abe
00000310: c429 9cbe ab80 b23a 98d5 a7bd fd66 f7bc
00000320: a5d1 e33c 1151 92be 3474 83be 6ae6 aebe
00000330: cd57 c83e 8868 023e e5e7 35be a431 5dbd
00000340: 7088 433e 476a c33e fbf0 113e 21d0 95bc
00000350: e55d 0c3e fa32 28be 9d13 cd3d 6553 a73c
00000360: 8bd7 c1be d47d 45bc 4b84 adbe 932f c43e
00000370: ea25 643e 6914 a83e 7073 60be a26f 5dbd
00000380: 26a3 cb3b 5701 a2be 3fe9 6e3e c888 1c3e
00000390: 92fc ca3d 575a 303e c8d6 aa3e 05a3 32be
000003a0: 54be a8be 31ef 97be a227 a2be d3fa 7c3e
000003b0: ea29 113e c1d7 abbe c78f f43d acd2 90ba
000003c0: 70c5 8e3e 43ad 423e d0ce 263e eead 843d
000003d0: 1eeb a13e 8fd4 a8be 9d8a 873e 47cb a2be
000003e0: 7106 893e 168a c43e 1d90 893e b12a c6bd
000003f0: 6316 75be 36ef aa3e 918a 45bd 803f 033e

MatMul_11 f4 [48, 16]
0.16435534 -0.051760353 0.19594334 0.2764596 -0.08105409 0.36268187 0.17561561 -0.019037876
0.09096925 -0.07002265 0.3346132 -0.016713394 -0.06681103 -0.14349212 -0.20751204 -0.15185843
0.03962948 0.38721946 -0.04412774 -0.1790278 0.15636893 0.34205645 0.11133715 0.24239068
0.042384416 0.049583115 -0.11310937 -0.20407222 -0.10627069 0.09489423 0.094898336 -0.14636531
-0.13833599 -0.13739717 0.0006050313 -0.12747186 -0.20671605 0.046409663 0.1354818 -0.068689205
0.10421902 -0.08980084 0.032527857 -0.15615548 0.0385625 -0.23784429 0.04917215 -0.15330876
-0.10975583 -0.16085592 -0.20008846 -0.076682545 -0.10797637 -0.00024043849 -0.038976617 0.1398884
0.19660841 -0.046720225 0.114458546 0.11632038 -0.116273895 0.13964075 0.070485204 -0.21469179
0.028433193 0.027074855 0.0043927007 -0.08233804 -0.0774779 0.14574541 0.07679912 0.12235752
-0.21111465 0.09575853 0.12419052 0.2284958 0.07982552 0.16171955 0.042045303 0.0049373438
-0.04259951 -0.15869112 0.1771888 -0.26085788 0.04641346 0.1641585 -0.023909708 -0.13148567
0.0028146908 0.09114389 -0.12807249 0.00814157 0.10338154 0.1483473 -0.40118018 -0.11311577
0.13658832 0.17502521 0.012014827 -0.043532297 -0.13267234 -0.33450747 -0.16581741 0.066482164
-0.05957848 -0.19680785 0.17479669 -0.015988931 -0.0568259 0.07252938 -0.06856057 -0.17272732
0.08143301 -0.2552393 -0.088805 -0.0071604117 0.04220281 0.24181451 -0.1664645 -0.011730278
-0.022841077 0.1271538 -0.38696393 -0.021249348 0.09186089 -0.25607505 -0.23090954 -0.21585622
0.037119687 0.040861778 0.11195109 0.06960175 -0.21960732 0.15363073 0.06058699 0.18647528
0.10875875 0.0024789667 -0.08038694 0.2343351 -0.005950177 0.11914504 -0.0559872 0.03870911
-0.25297824 0.043466218 -0.053866684 -0.17860694 -0.23742448 0.0033348228 0.13187699 -0.054086957
0.0006179339 -0.0017869726 -0.04933714 0.18702544 -0.0954897 0.08767946 -0.095875 0.12636642
-0.30870864 0.16786572 -0.08489696 0.24683134 0.049804438 0.096255176 -0.08747875 -0.12776905
0.00623437 0.032989707 -0.10532442 0.14251524 0.07934397 0.17800474 0.053342905 0.08877104
-0.14497153 -0.001361673 -0.07103801 0.18138456 0.13262789 0.110375345 0.014187659 0.11740982
-0.13060299 -0.067557536 0.28062716 -0.004896224 0.2512959 -0.05479027 -0.1932058 0.00812282
-0.19105908 -0.023824813 -0.0037849355 0.110940665 -0.15483156 -0.060824607 0.16030036 -0.09846468
-0.06323582 0.026713606 -0.046428353 0.10535684 0.01920107 0.007824508 0.1347717 -0.19798638
-0.07394989 0.04835429 -0.23007546 -0.103519864 0.2054485 -0.110196665 0.0242019 0.2032822
0.03497105 -0.18103218 0.04884593 0.16575861 0.1687596 -0.29609185 0.17060323 -0.07945992
0.09066808 -0.14466769 -0.03772383 -0.108664714 -0.10383547 -0.26947033 0.24618304 0.09768399
-0.032794416 -0.096796215 -0.12666444 -0.1721308 0.3682151 0.053442344 -0.18276328 0.2408927
-0.17644744 0.1793309 -0.20032157 -0.13656715 -0.057492577 -0.12698334 -0.0025206297 -0.18088238
0.13223717 -0.1264957 0.04376403 -0.09946284 -0.16622768 -0.059178226 -0.31725636 -0.28264123
00000000: c44c 283e aa02 54bd 5fa5 483e 1d8c 8d3e
00000010: b0ff a5bd 70b1 b93e 94d4 333e 52f5 9bbc
00000020: 164e ba3d 0968 8fbd 6c52 ab3e 87ea 88bc
00000030: 39d4 88bd 99ef 12be 097e 54be c780 1bbe
00000040: 8652 223d a141 c63e 4abf 34bd 1053 37be
00000050: 2d1f 203e 0622 af3e bb04 e43d 4335 783e
00000060: 489b 2d3d aa17 4b3d e3a5 e7bd 4ff8 50be
00000070: 73a4 d9bd e857 c23d 0f5a c23d cae0 15be
00000080: f3a7 0dbe d8b1 0cbe f79a 1e3a fc87 02be
00000090: 5fad 53be 0f18 3e3d bebb 0a3e edac 8cbd
000000a0: c870 d53d 81e9 b7bd ee3b 053d 39e7 1fbe
000000b0: b6f3 1d3d 748d 73be bd68 493d f9fc 1cbe
000000c0: aac7 e0bd 6ab7 24be fde3 4cbe bd0b 9dbd
000000d0: b722 ddbd 371e 7cb9 f2a5 1fbd e83e 0f3e
000000e0: b753 493e b55d 3fbd 3e69 ea3d 6139 ee3d
000000f0: 0221 eebd fcfd 0e3e 8c5a 903d 2ad8 5bbe
00000100: baec e83c 16cc dd3c a5f0 8f3b d9a0 a8bd
00000110: bcac 9ebd 493e 153e db48 9d3d 9496 fa3d
00000120: 702e 58be 0c1d c43d 9957 fe3d cefa 693e
00000130: 907b a33d cf99 253e b237 2c3d 71c9 a13b
00000140: d37c 2ebd ed7f 22be fb70 353e 2a8f 85be
00000150: 0a1c 3e3d 2a19 283e 4bde c3bc 2ea4 06be
00000160: ad76 383b a6a9 ba3d 6f25 03be 3864 053c
00000170: b3b9 d33d 5be8 173e 7d67 cdbe 3ea9 e7bd
00000180: cfdd 0b3e cf39 333e d6d9 443c ec4e 32bd
00000190: 42db 07be 9044 abbe 0acc 29be cd27 883d
000001a0: 9008 74bd ff87 49be e7fd 323e 38fb 82bc
000001b0: 46c2 68bd 498a 943d 7c69 8cbd 6edf 30be
000001c0: 5ac6 a63d baae 82be 65df b5bd e3a1 eabb
000001d0: dbdc 2c3d 399e 773e ab75 2abe 5a30 40bc
000001e0: 361d bbbc 9b34 023e 2320 c6be 1d13 aebc
000001f0: 9021 bc3d 451c 83be 8d73 6cbe 6a09 5dbe
00000200: d00a 183d ae5e 273d 9d46 e53d 5d8b 8e3d
00000210: bee0 60be 6051 1d3e 102a 783d 60f3 3e3e
00000220: e8bc de3d 2976 223b e8a1 a4bd 8af5 6f3e
00000230: b4f9 c2bb 5102 f43d d652 65bd 728d 1e3d
00000240: 5d86 81be a209 323d 50a3 5cbd bde4 36be
00000250: 671f 73be 0b8d 5a3b c30a 073e 498a 5dbd
00000260: d8fc 213a da38 eaba be15 4abd 9983 3f3e
00000270: 1b90 c3bd 4a91 b33d 1d5a c4bd 3366 013e
00000280: 0f0f 9ebe fee4 2b3e 75de adbd 5bc1 7c3e
00000290: bdff 4b3d 6f21 c53d 0f28 b3bd e4d5 02be
000002a0: b049 cc3b 3720 073d 54b4 d7bd 84ef 113e
000002b0: 177f a23d e046 363e 177e 5a3d 97cd b53d
000002c0: 6b73 14be 2a7a b2ba 607c 91bd e0bc 393e
000002d0: 9bcf 073e 780c e23d 5b73 683c 8f74 f03d
000002e0: cabc 05be 9b5b 8abd 5dae 8f3e 8170 a0bb
000002f0: dba9 803e c36b 60bd bed7 45be 9415 053c
00000300: fea4 43be 412c c3bc ae0c 78bb dc34 e33d
00000310: 2a8c 1ebe 3923 79bd c725 243e daa7 c9bd
00000320: c881 81bd 7ed6 da3c a82b 3ebd 54c5 d73d
00000330: 904b 9d3c 5d32 003c 9801 0a3e f1bc 4abe
00000340: 0a73 97bd 260f 463d e798 6bbe 3902 d4bd
00000350: 1761 523e caae e1bd 1043 c63c 3629 503e
00000360: ce3d 0f3d 8060 39be ab12 483d a0bc 293e
00000370: 51cf 2c3e 5a99 97be 9db2 2e3e e2bb a2bd
00000380: 30b0 b93d c423 14be 4e84 1abd 9b8b debd
00000390: b1a7 d4bd 04f8 89be 6817 7c3e 8b0e c83d
000003a0: 7053 06bd 183d c6bd 53b4 01be 0e43 30be
000003b0: b186 bc3e 5ce6 5a3d 4c26 3bbe 93ac 763e
000003c0: a3ae 34be 85a2 373e 1921 4dbe 42d8 0bbe
000003d0: 567d 6bbd ec07 02be 2631 25bb 3b39 39be
000003e0: 2e69 073e 1788 01be e941 333d 2cb3 cbbd
000003f0: 9737 2abe de64 72bd 6d6f a2be 5ab6 90be

unstack2 f4 [48]
9.486017e-05 -0.004043618 -0.0071383277 -0.008733883 -0.0061025214 -0.0050258986 -0.0025339443 -0.0032236222
-0.0022274607 -0.001274375 0.015130937 -0.009383723 0.00495376 -0.0020437387 -0.0073948037 0.013736916
-0.009558415 0.009301369 -0.0070127584 -0.0028990726 0.006173486 -0.0055418117 0.010937837 -0.006402249
-0.0058029573 -0.008324886 0.0035703792 -0.006104399 -0.015223682 -0.00991154 -0.007798689 0.0040362026
0.0023284736 0.00049273414 -0.0023276948 -0.010933598 0.000901872 1.1064018e-05 -0.0005161824 -0.010902413
-0.0044855713 0.0015073549 -0.004404608 0.005362912 -0.0027906385 -0.0035958893 -0.013810957 -0.009482918
00000000: aaef c638 5480 84bb a2e8 e9bb 8f18 0fbc
00000010: a9f7 c7bb 4bb0 a4bb 8810 26bb 6843 53bb
00000020: 97fa 11bb ee08 a7ba c0e7 773c 30be 19bc
00000030: 2753 a23b 3ff0 05bb 1c50 f2bb cd10 613c
00000040: e69a 1cbc c564 183c 48cb e5bb 5efe 3dbb
00000050: f44a ca3b 1698 b5bb 9d34 333c f5c9 d1bb
00000060: bc26 bebb 1a65 08bc 06fd 693b 6907 c8bb
00000070: c06c 79bc 0364 22bc 258c ffbb 1f42 843b
00000080: 4e99 183b d42a 013a 3d8c 18bb d522 33bc
00000090: 9b6b 6c3a 989f 3937 6a50 07ba 09a0 32bc
000000a0: b3fb 92bb 7092 c53a 8854 90bb 5ebb af3b
000000b0: 25e3 36bb 03a9 6bbb 5a47 62bc 3e5e 1bbc

unstack3 f4 [48]
9.486017e-05 -0.004043618 -0.0071383277 -0.008733883 -0.0061025214 -0.0050258986 -0.0025339443 -0.0032236222
-0.0022274607 -0.001274375 0.015130937 -0.009383723 0.00495376 -0.0020437387 -0.0073948037 0.013736916
-0.009558415 0.009301369 -0.0070127584 -0.0028990726 0.006173486 -0.0055418117 0.010937837 -0.006402249
-0.0058029573 -0.008324886 0.0035703792 -0.006104399 -0.015223682 -0.00991154 -0.007798689 0.0040362026
-0.0001372701 -0.001068395 0.005278858 -0.013308003 0.010776708 0.005231456 0.0009839205 -0.005163039
-0.011640661 0.0014843288 -0.0016152139 0.0056271 0.0033035276 -0.0030138984 -0.010607214 -0.009745017
00000000: aaef c638 5480 84bb a2e8 e9bb 8f18 0fbc
00000010: a9f7 c7bb 4bb0 a4bb 8810 26bb 6843 53bb
00000020: 97fa 11bb ee08 a7ba c0e7 773c 30be 19bc
00000030: 2753 a23b 3ff0 05bb 1c50 f2bb cd10 613c
00000040: e69a 1cbc c564 183c 48cb e5bb 5efe 3dbb
00000050: f44a ca3b 1698 b5bb 9d34 333c f5c9 d1bb
00000060: bc26 bebb 1a65 08bc 06fd 693b 6907 c8bb
00000070: c06c 79bc 0364 22bc 258c ffbb 1f42 843b
00000080: 29f0 0fb9 6309 8cba 45fa ac3b cf09 5abc
00000090: ca90 303c a26c ab3b e5f6 803a b62e a9bb
000000a0: 79b8 3ebc cf8d c23a 96b5 d3ba 8963 b83b
000000b0: ff7f 583b d384 45bb e1c9 2dbc 90a9 1fbc

MatMul1 f4 [48, 2048]
0.011985773 -0.023548521 -0.021287482 -0.042258285 0.031348277 -0.053773362 0.014994509 -0.046847742
-0.033030096 0.03242698 -0.061381113 0.047717 0.048063386 0.0061785732 0.027372176 -0.028617468
-0.018935416 -0.012626835 -0.033696923 -0.019706005 -0.0384496 -0.021953912 0.025953598 0.0063265976
-0.067521974 -0.025803246 -0.0050107995 -0.049160514 0.028727448 -0.022520244 0.03657266 0.050064165
0.016465902 -0.04094107 0.022130575 -0.033530805 0.017106047 0.017191479 -0.035285268 -0.056005504
0.000705163 0.019893207 0.03811906 -0.01597375 0.0151963355 0.019767653 0.019934142 -0.036351778
0.036070112 -0.03702606 0.021478137 -0.020386687 -0.009116198 -0.02728002 0.014030946 0.025167545
0.044279665 0.03133648 0.042241763 -0.04391266 -0.027476327 0.009019261 -0.03898045 -0.028362961
0.04039758 0.037725624 0.028599808 0.01872777 -0.04804735 0.009126298 0.022320757 -0.025960887
0.01230421 0.021433605 -0.04138507 0.014348759 0.010314969 0.012187285 -0.024291504 -0.029982291
0.020707605 -0.007312762 -0.016900143 0.031930454 0.052188322 -0.020862747 0.008572958 -0.05455994
0.04118472 -0.019282587 -0.00019120667 -0.013067322 -0.05184586 -0.027284116 0.047404096 0.030934354
0.003630926 0.03716425 -0.040171213 -0.0027112646 0.029535525 -0.0476951 0.040288188 0.041533854
0.004419213 0.055699978 -0.017290685 -0.032469522 -0.04858437 -0.021430077 0.0060401317 -0.05601147
-0.025661247 -0.021635726 -0.061246168 0.03752559 0.026171805 0.0041770246 -0.013163939 0.062246617
0.018736726 -0.034510817 -0.0032573724 0.07169284 -0.055197023 -0.0025136871 0.021025015 -0.003939895
-0.029339585 0.033227816 0.043915965 0.003948183 -0.020146169 -0.00564416 0.033423703 0.04908929
-0.0012562011 -0.0049987594 -0.028056582 -0.016833195 0.014272568 0.008061683 -0.05180887 -0.061455622
0.008271345 0.010502752 0.06396115 -0.026037402 -0.0166048 -0.03726973 -0.036088448 -0.015773524
0.04900227 0.028997052 -0.017997956 0.013848903 -0.034806587 0.034168534 0.0384981 0.011492734
0.06072216 -0.028719043 -0.05161719 -0.0026802141 -0.066103935 0.028231716 -0.04362181 0.028180923
0.012146024 -0.055131182 -0.048745777 -0.011439605 -0.042426277 0.04485248 -0.04836694 0.024839498
0.023487024 -0.03438154 0.047946613 -0.015095993 0.011831226 0.00938374 -0.044607703 0.02345747
0.06735636 0.052136548 0.06061746 -0.053724386 0.029698515 -0.05001857 -0.028282978 -0.053606275
-0.059616536 -0.055150077 -0.024733363 -0.035249513 0.0038336897 -0.026415601 -0.011913073 -0.00018332609
0.050451692 -0.044147227 -0.050910033 -0.06652764 -0.02586287 0.011167012 -0.029998386 0.006258511
-0.045060094 0.004338119 -0.027623652 -0.019043697 -0.020077724 -0.028144293 0.007946936 -0.032509387
-0.020842295 -0.022462992 0.04204209 0.001815161 -0.045323562 -0.0035042625 -0.035803042 -0.0023678485
0.033083193 -0.0060267416 0.023137154 0.004843968 0.05096382 -0.03790772 0.026735144 0.025361896
0.034678943 -0.067512125 -0.013635595 -0.05886701 0.0049083764 -0.0553417 0.062029123 -0.008759642
0.045189068 0.04576919 0.03979968 0.0046539237 -0.04468123 0.00073494617 0.046671357 0.011554028
-0.007042032 -0.03416341 -0.023832783 -0.0016284508 -0.0272712 0.02764811 -0.03033556 -0.034669206
00000000: fa5f 443c d4e8 c0bc 1663 aebc 0617 2dbd
00000010: 0d67 003d 7541 5cbd 87ab 753c 6be3 3fbd
00000020: 914a 07bd 27d2 043d c36a 7bbd e772 433d
00000030: 1dde 443d a175 ca3b 9d3b e03c 2e6f eabc
00000040: 721e 9bbc c9e0 4ebc c905 0abd 7d6e a1bc
00000050: 547d 1dbd b1d8 b3bc a49c d43c 594f cf3b
00000060: f648 8abd 5461 d3bc a231 a4bb 895c 49bd
00000070: d355 eb3c 607c b8bc 37cd 153d 1510 4d3d
00000080: 80e3 863c d3b1 27bd 2e4b b53c 9957 09bd
00000090: fb21 8c3c 25d5 8c3c 4987 10bd 0766 65bd
000000a0: b0da 383a 14f7 a23c bb22 1c3d 62db 82bc
000000b0: 0dfa 783c c6ef a13c ed4c a33c 9ae5 14bd
000000c0: 41be 133d a3a8 17bd ebf2 af3c fb01 a7bc
000000d0: 1b5c 15bc 597a dfbc 0ee2 653c 2b2c ce3c
000000e0: 985e 353d ae5a 003d b305 2d3d c3dd 33bd
000000f0: 0916 e1bc 86c5 133c f7a9 1fbd 7159 e8bc
00000100: ef77 253d 2f86 1a3d 254a ea3c fb6a 993c
00000110: 4ccd 44bd 7886 153c 05da b63c edab d4bc
00000120: 9997 493c 8795 af3c 6483 29bd 0f17 6b3c
00000130: 1e00 293c 2ead 473c fafe c6bc 6c9d f5bc
00000140: ffa2 a93c e59f efbb 2b72 8abc 82c9 023d
00000150: 6cc3 553d 5ae8 aabc 9875 0c3c 3e7a 5fbd
00000160: 4fb1 283d 84f6 9dbc a67e 48b9 5218 56bc
00000170: 535c 54bd f082 dfbc cc2a 423d 0b6a fd3c
00000180: d4f4 6d3b 8a39 183d 928a 24bd 79af 31bb
00000190: 7cf4 f13c f05b 43bd 3a05 253d 671f 2a3d
000001a0: 0ccf 903b a925 643d 32a5 8dbc c3fe 04bd
000001b0: 6800 47bd 218e afbc 4cec c53b 486c 65bd
000001c0: 8937 d2bc 683d b1bc 43dd 7abd 6fb4 193d
000001d0: 4166 d63c 6cdf 883b 90ad 57bc 4ff6 7e3d
000001e0: c37d 993c 375b 0dbd a479 55bb b2d3 923d
000001f0: 4616 62bd acbc 24bb a73c ac3c 3c1a 81bb
00000200: 9259 f0bc e419 083d 3ae1 333d c25f 813b
00000210: 9409 a5bc a5f2 b8bb 4be7 083d da11 493d
00000220: 1da7 a4ba a2cc a3bb ebd6 e5bc c5e5 89bc
00000230: 7dd7 693c 2615 043c 8a35 54bd e4b8 7bbd
00000240: 8984 073c bc13 2c3c 10fe 823d 644c d5bc
00000250: ca06 88bc 25a8 18bd 7bd1 13bd 7a37 81bc
00000260: 9bb6 483d 3a8b ed3c 7370 93bc 82e6 623c
00000270: 5a91 0ebd 4ef4 0b3d 2fb0 1d3d 054c 3c3c
00000280: cdb7 783d 3344 ebbc 8c6c 53bd 88a6 2fbb
00000290: 8061 87bd 3346 e73c c8ac 32bd aedb e63c
000002a0: 1e00 473c 3cd1 61bd a7a9 47bd 2e6d 3bbc
000002b0: 2dc7 2dbd 3cb7 373d 6a1c 46bd 347c cb3c
000002c0: dc67 c03c a8d3 0cbd ab63 443d 2f55 77bc
000002d0: c2d7 413c 42be 193c 91b6 36bd e129 c03c
000002e0: 22f2 893d 228d 553d 044a 783d 1a0e 5cbd
000002f0: 4d4a f33c 46e0 4cbd b4b1 e7bc 4192 5bbd
00000300: 7830 74bd 0ce5 61bd 9f9d cabc cb61 10bd
00000310: a43e 7b3b 8865 d8bc 0d2f 43bc 393b 40b9
00000320: 6fa6 4e3d b9d3 34bd 0a87 50bd a53f 88bd
00000330: 5fde d3bc d8f5 363c 2dbf f5bc 3214 cd3b
00000340: ef90 38bd c826 8e3b ff4a e2bc 8701 9cbc
00000350: 0a7a a4bc dc8e e6bc de33 023c 9028 05bd
00000360: 76bd aabc 4f04 b8bc 5434 2c3d b2ea ed3a
00000370: 33a5 39bd c5a7 65bb 36a6 12bd e82d 1bbb
00000380: 3e82 073d f97b c5bb 218a bd3c 26ba 9e3b
00000390: 70bf 503d 2045 1bbd a903 db3c c0c3 cf3c
000003a0: 820b 0e3d cc43 8abd d567 5fbc 891e 71bd
000003b0: 72d6 a03b faad 62bd 4012 7e3d 9a84 0fbc
000003c0: 2c18 393d 7978 3b3d fd04 233d f17f 983b
000003d0: aa03 37bd 67a9 403a 772a 3f3d 1b4d 3d3c
000003e0: d9c0 e6bb efee 0bbd f83c c3bc be71 d5ba
000003f0: da67 dfbc 4a7e e23c 4882 f8bc 4c01 0ebd

model/dense/MatMul f4 [8, 8]
0.6374646 0.012200207 -0.046692193 -0.73671055 -0.079622395 -0.7195993 -0.16141689 0.03129173
-0.23983298 0.4983422 -0.3186261 0.4690271 -0.034621436 0.16726464 0.2200326 -0.20611916
-0.062529884 -0.5683043 0.00043295836 0.21530111 0.15655561 -0.61585563 -0.43798363 0.24027258
-0.43346983 0.5440366 0.4640994 0.3778641 -0.42437375 0.4710103 0.38578978 -0.54109687
0.12384289 -0.09237606 0.07525004 0.16908407 -0.37339872 -0.0692375 0.4160323 0.24111013
0.59126997 -0.56471866 -0.4449003 -0.474488 0.22966072 0.06302156 -0.5650136 -0.65593296
-0.47264796 -0.263912 0.15381967 -0.3544669 0.05572771 -0.45763394 -0.51243883 -0.30862355
0.38218585 -0.047561035 0.28781986 -0.20910831 -0.10472333 0.069358096 -0.5434005 0.49916556
00000000: e130 233f 61e3 473c 5040 3fbd 1099 3cbf
00000010: 1111 a3bd a937 38bf 784a 25be c22b 003d
00000020: c796 75be b526 ff3e f622 a3be 5224 f03e
00000030: 35cf 0dbd 6c47 2b3e 3a50 613e e710 53be
00000040: ab0f 80bd 647c 11bf b0fe e239 e577 5c3e
00000050: 1d50 203e b7a8 1dbf 643f e0be 040a 763e
00000060: c2ef ddbe fc45 0b3f 709e ed3e 6777 c13e
00000070: 8447 d9be 4328 f13e 3d86 c53e 5385 0abf
00000080: 57a1 fd3d a92f bdbd b11c 9a3d 6024 2d3e
00000090: 1e2e bfbe 64cc 8dbd 3002 d53e 93e5 763e
000000a0: 785d 173f 6791 10bf f9c9 e3be 17f0 f2be
000000b0: 2e2c 6b3e 7311 813d bba4 10bf 39eb 27bf
000000c0: eafe f1be 791f 87be e782 1d3e af7c b5be
000000d0: bd42 643d ff4e eabe 312f 03bf e803 9ebe
000000e0: ddad c33e 5ccf 42bd 205d 933e 7d20 56be
000000f0: 2f79 d6bd 9e0b 8e3d 4c1c 0bbf a192 ff3e

model/dense_1/MatMul f4 [2, 8]
-0.5268647 -0.22072323 0.20111549 -0.42806774 0.5206319 0.80489635 -0.5014833 -0.3467875
-0.69979566 0.50079006 -0.20382339 0.7286246 0.6913681 -0.32938614 -0.048785605 -0.37987855
00000000: 9be0 06bf 4505 62be 38f1 4d3e b22b dbbe
00000010: 2248 053f b00d 4e3f 3661 00bf 228e b1be
00000020: cf25 33bf c733 003f 14b7 50be 2487 3a3f
00000030: 80fd 303f 4da5 a8be 6ad3 47bd 717f c2be

unstack4 f4 [48]
9.486017e-05 -0.004043618 -0.0071383277 -0.008733883 -0.0061025214 -0.0050258986 -0.0025339443 -0.0032236222
-0.0022274607 -0.001274375 0.015130937 -0.009383723 0.00495376 -0.0020437387 -0.0073948037 0.013736916
-0.009558415 0.009301369 -0.0070127584 -0.0028990726 0.006173486 -0.0055418117 0.010937837 -0.006402249
-0.0058029573 -0.008324886 0.0035703792 -0.006104399 -0.015223682 -0.00991154 -0.007798689 0.0040362026
0.0023284736 0.00049273414 -0.0023276948 -0.010933598 0.000901872 1.1064018e-05 -0.0005161824 -0.010902413
-0.0044855713 0.0015073549 -0.004404608 0.005362912 -0.0027906385 -0.0035958893 -0.013810957 -0.009482918
00000000: aaef c638 5480 84bb a2e8 e9bb 8f18 0fbc
00000010: a9f7 c7bb 4bb0 a4bb 8810 26bb 6843 53bb
00000020: 97fa 11bb ee08 a7ba c0e7 773c 30be 19bc
00000030: 2753 a23b 3ff0 05bb 1c50 f2bb cd10 613c
00000040: e69a 1cbc c564 183c 48cb e5bb 5efe 3dbb
00000050: f44a ca3b 1698 b5bb 9d34 333c f5c9 d1bb
00000060: bc26 bebb 1a65 08bc 06fd 693b 6907 c8bb
00000070: c06c 79bc 0364 22bc 258c ffbb 1f42 843b
00000080: 4e99 183b d42a 013a 3d8c 18bb d522 33bc
00000090: 9b6b 6c3a 989f 3937 6a50 07ba 09a0 32bc
000000a0: b3fb 92bb 7092 c53a 8854 90bb 5ebb af3b
000000b0: 25e3 36bb 03a9 6bbb 5a47 62bc 3e5e 1bbc

MatMul2 f4 [48, 2048]
0.011985773 -0.023548521 -0.021287482 -0.042258285 0.031348277 -0.053773362 0.014994509 -0.046847742
-0.033030096 0.03242698 -0.061381113 0.047717 0.048063386 0.0061785732 0.027372176 -0.028617468
-0.018935416 -0.012626835 -0.033696923 -0.019706005 -0.0384496 -0.021953912 0.025953598 0.0063265976
-0.067521974 -0.025803246 -0.0050107995 -0.049160514 0.028727448 -0.022520244 0.03657266 0.050064165
0.016465902 -0.04094107 0.022130575 -0.033530805 0.017106047 0.017191479 -0.035285268 -0.056005504
0.000705163 0.019893207 0.03811906 -0.01597375 0.0151963355 0.019767653 0.019934142 -0.036351778
0.036070112 -0.03702606 0.021478137 -0.020386687 -0.009116198 -0.02728002 0.014030946 0.025167545
0.044279665 0.03133648 0.042241763 -0.04391266 -0.027476327 0.009019261 -0.03898045 -0.028362961
0.04039758 0.037725624 0.028599808 0.01872777 -0.04804735 0.009126298 0.022320757 -0.025960887
0.01230421 0.021433605 -0.04138507 0.014348759 0.010314969 0.012187285 -0.024291504 -0.029982291
0.020707605 -0.007312762 -0.016900143 0.031930454 0.052188322 -0.020862747 0.008572958 -0.05455994
0.04118472 -0.019282587 -0.00019120667 -0.013067322 -0.05184586 -0.027284116 0.047404096 0.030934354
0.003630926 0.03716425 -0.040171213 -0.0027112646 0.029535525 -0.0476951 0.040288188 0.041533854
0.004419213 0.055699978 -0.017290685 -0.032469522 -0.04858437 -0.021430077 0.0060401317 -0.05601147
-0.025661247 -0.021635726 -0.061246168 0.03752559 0.026171805 0.0041770246 -0.013163939 0.062246617
0.018736726 -0.034510817 -0.0032573724 0.07169284 -0.055197023 -0.0025136871 0.021025015 -0.003939895
-0.029339585 0.033227816 0.043915965 0.003948183 -0.020146169 -0.00564416 0.033423703 0.04908929
-0.0012562011 -0.0049987594 -0.028056582 -0.016833195 0.014272568 0.008061683 -0.05180887 -0.061455622
0.008271345 0.010502752 0.06396115 -0.026037402 -0.0166048 -0.03726973 -0.036088448 -0.015773524
0.04900227 0.028997052 -0.017997956 0.013848903 -0.034806587 0.034168534 0.0384981 0.011492734
0.06072216 -0.028719043 -0.05161719 -0.0026802141 -0.066103935 0.028231716 -0.04362181 0.028180923
0.012146024 -0.055131182 -0.048745777 -0.011439605 -0.042426277 0.04485248 -0.04836694 0.024839498
0.023487024 -0.03438154 0.047946613 -0.015095993 0.011831226 0.00938374 -0.044607703 0.02345747
0.06735636 0.052136548 0.06061746 -0.053724386 0.029698515 -0.05001857 -0.028282978 -0.053606275
-0.059616536 -0.055150077 -0.024733363 -0.035249513 0.0038336897 -0.026415601 -0.011913073 -0.00018332609
0.050451692 -0.044147227 -0.050910033 -0.06652764 -0.02586287 0.011167012 -0.029998386 0.006258511
-0.045060094 0.004338119 -0.027623652 -0.019043697 -0.020077724 -0.028144293 0.007946936 -0.032509387
-0.020842295 -0.022462992 0.04204209 0.001815161 -0.045323562 -0.0035042625 -0.035803042 -0.0023678485
0.033083193 -0.0060267416 0.023137154 0.004843968 0.05096382 -0.03790772 0.026735144 0.025361896
0.034678943 -0.067512125 -0.013635595 -0.05886701 0.0049083764 -0.0553417 0.062029123 -0.008759642
0.045189068 0.04576919 0.03979968 0.0046539237 -0.04468123 0.00073494617 0.046671357 0.011554028
-0.007042032 -0.03416341 -0.023832783 -0.0016284508 -0.0272712 0.02764811 -0.03033556 -0.034669206
00000000: fa5f 443c d4e8 c0bc 1663 aebc 0617 2dbd
00000010: 0d67 003d 7541 5cbd 87ab 753c 6be3 3fbd
00000020: 914a 07bd 27d2 043d c36a 7bbd e772 433d
00000030: 1dde 443d a175 ca3b 9d3b e03c 2e6f eabc
00000040: 721e 9bbc c9e0 4ebc c905 0abd 7d6e a1bc
00000050: 547d 1dbd b1d8 b3bc a49c d43c 594f cf3b
00000060: f648 8abd 5461 d3bc a231 a4bb 895c 49bd
00000070: d355 eb3c 607c b8bc 37cd 153d 1510 4d3d
00000080: 80e3 863c d3b1 27bd 2e4b b53c 9957 09bd
00000090: fb21 8c3c 25d5 8c3c 4987 10bd 0766 65bd
000000a0: b0da 383a 14f7 a23c bb22 1c3d 62db 82bc
000000b0: 0dfa 783c c6ef a13c ed4c a33c 9ae5 14bd
000000c0: 41be 133d a3a8 17bd ebf2 af3c fb01 a7bc
000000d0: 1b5c 15bc 597a dfbc 0ee2 653c 2b2c ce3c
000000e0: 985e 353d ae5a 003d b305 2d3d c3dd 33bd
000000f0: 0916 e1bc 86c5 133c f7a9 1fbd 7159 e8bc
00000100: ef77 253d 2f86 1a3d 254a ea3c fb6a 993c
00000110: 4ccd 44bd 7886 153c 05da b63c edab d4bc
00000120: 9997 493c 8795 af3c 6483 29bd 0f17 6b3c
00000130: 1e00 293c 2ead 473c fafe c6bc 6c9d f5bc
00000140: ffa2 a93c e59f efbb 2b72 8abc 82c9 023d
00000150: 6cc3 553d 5ae8 aabc 9875 0c3c 3e7a 5fbd
00000160: 4fb1 283d 84f6 9dbc a67e 48b9 5218 56bc
00000170: 535c 54bd f082 dfbc cc2a 423d 0b6a fd3c
00000180: d4f4 6d3b 8a39 183d 928a 24bd 79af 31bb
00000190: 7cf4 f13c f05b 43bd 3a05 253d 671f 2a3d
000001a0: 0ccf 903b a925 643d 32a5 8dbc c3fe 04bd
000001b0: 6800 47bd 218e afbc 4cec c53b 486c 65bd
000001c0: 8937 d2bc 683d b1bc 43dd 7abd 6fb4 193d
000001d0: 4166 d63c 6cdf 883b 90ad 57bc 4ff6 7e3d
000001e0: c37d 993c 375b 0dbd a479 55bb b2d3 923d
000001f0: 4616 62bd acbc 24bb a73c ac3c 3c1a 81bb
00000200: 9259 f0bc e419 083d 3ae1 333d c25f 813b
00000210: 9409 a5bc a5f2 b8bb 4be7 083d da11 493d
00000220: 1da7 a4ba a2cc a3bb ebd6 e5bc c5e5 89bc
00000230: 7dd7 693c 2615 043c 8a35 54bd e4b8 7bbd
00000240: 8984 073c bc13 2c3c 10fe 823d 644c d5bc
00000250: ca06 88bc 25a8 18bd 7bd1 13bd 7a37 81bc
00000260: 9bb6 483d 3a8b ed3c 7370 93bc 82e6 623c
00000270: 5a91 0ebd 4ef4 0b3d 2fb0 1d3d 054c 3c3c
00000280: cdb7 783d 3344 ebbc 8c6c 53bd 88a6 2fbb
00000290: 8061 87bd 3346 e73c c8ac 32bd aedb e63c
000002a0: 1e00 473c 3cd1 61bd a7a9 47bd 2e6d 3bbc
000002b0: 2dc7 2dbd 3cb7 373d 6a1c 46bd 347c cb3c
000002c0: dc67 c03c a8d3 0cbd ab63 443d 2f55 77bc
000002d0: c2d7 413c 42be 193c 91b6 36bd e129 c03c
000002e0: 22f2 893d 228d 553d 044a 783d 1a0e 5cbd
000002f0: 4d4a f33c 46e0 4cbd b4b1 e7bc 4192 5bbd
00000300: 7830 74bd 0ce5 61bd 9f9d cabc cb61 10bd
00000310: a43e 7b3b 8865 d8bc 0d2f 43bc 393b 40b9
00000320: 6fa6 4e3d b9d3 34bd 0a87 50bd a53f 88bd
00000330: 5fde d3bc d8f5 363c 2dbf f5bc 3214 cd3b
00000340: ef90 38bd c826 8e3b ff4a e2bc 8701 9cbc
00000350: 0a7a a4bc dc8e e6bc de33 023c 9028 05bd
00000360: 76bd aabc 4f04 b8bc 5434 2c3d b2ea ed3a
00000370: 33a5 39bd c5a7 65bb 36a6 12bd e82d 1bbb
00000380: 3e82 073d f97b c5bb 218a bd3c 26ba 9e3b
00000390: 70bf 503d 2045 1bbd a903 db3c c0c3 cf3c
000003a0: 820b 0e3d cc43 8abd d567 5fbc 891e 71bd
000003b0: 72d6 a03b faad 62bd 4012 7e3d 9a84 0fbc
000003c0: 2c18 393d 7978 3b3d fd04 233d f17f 983b
000003d0: aa03 37bd 67a9 403a 772a 3f3d 1b4d 3d3c
000003e0: d9c0 e6bb efee 0bbd f83c c3bc be71 d5ba
000003f0: da67 dfbc 4a7e e23c 4882 f8bc 4c01 0ebd

unstack5 f4 [48]
9.486017e-05 -0.004043618 -0.0071383277 -0.008733883 -0.0061025214 -0.0050258986 -0.0025339443 -0.0032236222
-0.0022274607 -0.001274375 0.015130937 -0.009383723 0.00495376 -0.0020437387 -0.0073948037 0.013736916
-0.009558415 0.009301369 -0.0070127584 -0.0028990726 0.006173486 -0.0055418117 0.010937837 -0.006402249
-0.0058029573 -0.008324886 0.0035703792 -0.006104399 -0.015223682 -0.00991154 -0.007798689 0.0040362026
-0.0001372701 -0.001068395 0.005278858 -0.013308003 0.010776708 0.005231456 0.0009839205 -0.005163039
-0.011640661 0.0014843288 -0.0016152139 0.0056271 0.0033035276 -0.0030138984 -0.010607214 -0.009745017
00000000: aaef c638 5480 84bb a2e8 e9bb 8f18 0fbc
00000010: a9f7 c7bb 4bb0 a4bb 8810 26bb 6843 53bb
00000020: 97fa 11bb ee08 a7ba c0e7 773c 30be 19bc
00000030: 2753 a23b 3ff0 05bb 1c50 f2bb cd10 613c
00000040: e69a 1cbc c564 183c 48cb e5bb 5efe 3dbb
00000050: f44a ca3b 1698 b5bb 9d34 333c f5c9 d1bb
00000060: bc26 bebb 1a65 08bc 06fd 693b 6907 c8bb
00000070: c06c 79bc 0364 22bc 258c ffbb 1f42 843b
00000080: 29f0 0fb9 6309 8cba 45fa ac3b cf09 5abc
00000090: ca90 303c a26c ab3b e5f6 803a b62e a9bb
000000a0: 79b8 3ebc cf8d c23a 96b5 d3ba 8963 b83b
000000b0: ff7f 583b d384 45bb e1c9 2dbc 90a9 1fbc

MatMul_12 f4 [48, 16]
0.16435534 -0.051760353 0.19594334 0.2764596 -0.08105409 0.36268187 0.17561561 -0.019037876
0.09096925 -0.07002265 0.3346132 -0.016713394 -0.06681103 -0.14349212 -0.20751204 -0.15185843
0.03962948 0.38721946 -0.04412774 -0.1790278 0.15636893 0.34205645 0.11133715 0.24239068
0.042384416 0.049583115 -0.11310937 -0.20407222 -0.10627069 0.09489423 0.094898336 -0.14636531
-0.13833599 -0.13739717 0.0006050313 -0.12747186 -0.20671605 0.046409663 0.1354818 -0.068689205
0.10421902 -0.08980084 0.032527857 -0.15615548 0.0385625 -0.23784429 0.04917215 -0.15330876
-0.10975583 -0.16085592 -0.20008846 -0.076682545 -0.10797637 -0.00024043849 -0.038976617 0.1398884
0.19660841 -0.046720225 0.114458546 0.11632038 -0.116273895 0.13964075 0.070485204 -0.21469179
0.028433193 0.027074855 0.0043927007 -0.08233804 -0.0774779 0.14574541 0.07679912 0.12235752
-0.21111465 0.09575853 0.12419052 0.2284958 0.07982552 0.16171955 0.042045303 0.0049373438
-0.04259951 -0.15869112 0.1771888 -0.26085788 0.04641346 0.1641585 -0.023909708 -0.13148567
0.0028146908 0.09114389 -0.12807249 0.00814157 0.10338154 0.1483473 -0.40118018 -0.11311577
0.13658832 0.17502521 0.012014827 -0.043532297 -0.13267234 -0.33450747 -0.16581741 0.066482164
-0.05957848 -0.19680785 0.17479669 -0.015988931 -0.0568259 0.07252938 -0.06856057 -0.17272732
0.08143301 -0.2552393 -0.088805 -0.0071604117 0.04220281 0.24181451 -0.1664645 -0.011730278
-0.022841077 0.1271538 -0.38696393 -0.021249348 0.09186089 -0.25607505 -0.23090954 -0.21585622
0.037119687 0.040861778 0.11195109 0.06960175 -0.21960732 0.15363073 0.06058699 0.18647528
0.10875875 0.0024789667 -0.08038694 0.2343351 -0.005950177 0.11914504 -0.0559872 0.03870911
-0.25297824 0.043466218 -0.053866684 -0.17860694 -0.23742448 0.0033348228 0.13187699 -0.054086957
0.0006179339 -0.0017869726 -0.04933714 0.18702544 -0.0954897 0.08767946 -0.095875 0.12636642
-0.30870864 0.16786572 -0.08489696 0.24683134 0.049804438 0.096255176 -0.08747875 -0.12776905
0.00623437 0.032989707 -0.10532442 0.14251524 0.07934397 0.17800474 0.053342905 0.08877104
-0.14497153 -0.001361673 -0.07103801 0.18138456 0.13262789 0.110375345 0.014187659 0.11740982
-0.13060299 -0.067557536 0.28062716 -0.004896224 0.2512959 -0.05479027 -0.1932058 0.00812282
-0.19105908 -0.023824813 -0.0037849355 0.110940665 -0.15483156 -0.060824607 0.16030036 -0.09846468
-0.06323582 0.026713606 -0.046428353 0.10535684 0.01920107 0.007824508 0.1347717 -0.19798638
-0.07394989 0.04835429 -0.23007546 -0.103519864 0.2054485 -0.110196665 0.0242019 0.2032822
0.03497105 -0.18103218 0.04884593 0.16575861 0.1687596 -0.29609185 0.17060323 -0.07945992
0.09066808 -0.14466769 -0.03772383 -0.108664714 -0.10383547 -0.26947033 0.24618304 0.09768399
-0.032794416 -0.096796215 -0.12666444 -0.1721308 0.3682151 0.053442344 -0.18276328 0.2408927
-0.17644744 0.1793309 -0.20032157 -0.13656715 -0.057492577 -0.12698334 -0.0025206297 -0.18088238
0.13223717 -0.1264957 0.04376403 -0.09946284 -0.16622768 -0.059178226 -0.31725636 -0.28264123
00000000: c44c 283e aa02 54bd 5fa5 483e 1d8c 8d3e
00000010: b0ff a5bd 70b1 b93e 94d4 333e 52f5 9bbc
00000020: 164e ba3d 0968 8fbd 6c52 ab3e 87ea 88bc
00000030: 39d4 88bd 99ef 12be 097e 54be c780 1bbe
00000040: 8652 223d a141 c63e 4abf 34bd 1053 37be
00000050: 2d1f 203e 0622 af3e bb04 e43d 4335 783e
00000060: 489b 2d3d aa17 4b3d e3a5 e7bd 4ff8 50be
00000070: 73a4 d9bd e857 c23d 0f5a c23d cae0 15be
00000080: f3a7 0dbe d8b1 0cbe f79a 1e3a fc87 02be
00000090: 5fad 53be 0f18 3e3d bebb 0a3e edac 8cbd
000000a0: c870 d53d 81e9 b7bd ee3b 053d 39e7 1fbe
000000b0: b6f3 1d3d 748d 73be bd68 493d f9fc 1cbe
000000c0: aac7 e0bd 6ab7 24be fde3 4cbe bd0b 9dbd
000000d0: b722 ddbd 371e 7cb9 f2a5 1fbd e83e 0f3e
000000e0: b753 493e b55d 3fbd 3e69 ea3d 6139 ee3d
000000f0: 0221 eebd fcfd 0e3e 8c5a 903d 2ad8 5bbe
00000100: baec e83c 16cc dd3c a5f0 8f3b d9a0 a8bd
00000110: bcac 9ebd 493e 153e db48 9d3d 9496 fa3d
00000120: 702e 58be 0c1d c43d 9957 fe3d cefa 693e
00000130: 907b a33d cf99 253e b237 2c3d 71c9 a13b
00000140: d37c 2ebd ed7f 22be fb70 353e 2a8f 85be
00000150: 0a1c 3e3d 2a19 283e 4bde c3bc 2ea4 06be
00000160: ad76 383b a6a9 ba3d 6f25 03be 3864 053c
00000170: b3b9 d33d 5be8 173e 7d67 cdbe 3ea9 e7bd
00000180: cfdd 0b3e cf39 333e d6d9 443c ec4e 32bd
00000190: 42db 07be 9044 abbe 0acc 29be cd27 883d
000001a0: 9008 74bd ff87 49be e7fd 323e 38fb 82bc
000001b0: 46c2 68bd 498a 943d 7c69 8cbd 6edf 30be
000001c0: 5ac6 a63d baae 82be 65df b5bd e3a1 eabb
000001d0: dbdc 2c3d 399e 773e ab75 2abe 5a30 40bc
000001e0: 361d bbbc 9b34 023e 2320 c6be 1d13 aebc
000001f0: 9021 bc3d 451c 83be 8d73 6cbe 6a09 5dbe
00000200: d00a 183d ae5e 273d 9d46 e53d 5d8b 8e3d
00000210: bee0 60be 6051 1d3e 102a 783d 60f3 3e3e
00000220: e8bc de3d 2976 223b e8a1 a4bd 8af5 6f3e
00000230: b4f9 c2bb 5102 f43d d652 65bd 728d 1e3d
00000240: 5d86 81be a209 323d 50a3 5cbd bde4 36be
00000250: 671f 73be 0b8d 5a3b c30a 073e 498a 5dbd
00000260: d8fc 213a da38 eaba be15 4abd 9983 3f3e
00000270: 1b90 c3bd 4a91 b33d 1d5a c4bd 3366 013e
00000280: 0f0f 9ebe fee4 2b3e 75de adbd 5bc1 7c3e
00000290: bdff 4b3d 6f21 c53d 0f28 b3bd e4d5 02be
000002a0: b049 cc3b 3720 073d 54b4 d7bd 84ef 113e
000002b0: 177f a23d e046 363e 177e 5a3d 97cd b53d
000002c0: 6b73 14be 2a7a b2ba 607c 91bd e0bc 393e
000002d0: 9bcf 073e 780c e23d 5b73 683c 8f74 f03d
000002e0: cabc 05be 9b5b 8abd 5dae 8f3e 8170 a0bb
000002f0: dba9 803e c36b 60bd bed7 45be 9415 053c
00000300: fea4 43be 412c c3bc ae0c 78bb dc34 e33d
00000310: 2a8c 1ebe 3923 79bd c725 243e daa7 c9bd
00000320: c881 81bd 7ed6 da3c a82b 3ebd 54c5 d73d
00000330: 904b 9d3c 5d32 003c 9801 0a3e f1bc 4abe
00000340: 0a73 97bd 260f 463d e798 6bbe 3902 d4bd
00000350: 1761 523e caae e1bd 1043 c63c 3629 503e
00000360: ce3d 0f3d 8060 39be ab12 483d a0bc 293e
00000370: 51cf 2c3e 5a99 97be 9db2 2e3e e2bb a2bd
00000380: 30b0 b93d c423 14be 4e84 1abd 9b8b debd
00000390: b1a7 d4bd 04f8 89be 6817 7c3e 8b0e c83d
000003a0: 7053 06bd 183d c6bd 53b4 01be 0e43 30be
000003b0: b186 bc3e 5ce6 5a3d 4c26 3bbe 93ac 763e
000003c0: a3ae 34be 85a2 373e 1921 4dbe 42d8 0bbe
000003d0: 567d 6bbd ec07 02be 2631 25bb 3b39 39be
000003e0: 2e69 073e 1788 01be e941 333d 2cb3 cbbd
000003f0: 9737 2abe de64 72bd 6d6f a2be 5ab6 90be

unstack6 f4 [24]
-0.022292972 -0.015321144 -0.009685071 -0.029314224 -0.017457569 -0.015322148 -0.027194794 0.013730143
-0.019056449 -0.04275119 -0.03378991 0.06841536 -0.071087755 0.027368829 0.078727216 -0.00944053
-0.027170967 0.026802178 -0.038754404 -0.029239934 0.016633576 0.04632619 -0.003342455 -0.041161694
00000000: c09f b6bc 8905 7bbc 22ae 1ebc 6224 f0bc
00000010: 2d03 8fbc bf09 7bbc 9ec7 debc 65f4 603c
00000020: 451c 9cbc df1b 2fbd 4a67 0abd 5a1d 8c3d
00000030: 7596 91bd 9834 e03c bc3b a13d 74ac 1abc
00000040: a695 debc 3e90 db3c f0bc 1ebd 9688 efbc
00000050: 2343 883c 88c0 3d3d 170d 5bbb 2a99 28bd
